TrainingData.pth (torch, 7703 bytes, 6 tensors)

LayerOne.weight f4 [8, 95]
0	0x3f703174	0.9382546
1	0x3f656c6a	0.8961855
2	0x3f66ef6d	0.90209085
3	0x4025cab4	2.590497
4	0x3f77757a	0.9666363
5	0x3dadbaae	0.08482872
6	0x3f680389	0.90630394
7	0x3f73b1ab	0.95192975
8	0xbf2c1bc2	-0.67229855
9	0xbec22f34	-0.37926638
10	0x3ec60ac7	0.38680097
11	0x40089077	2.1338174
12	0x3faa70d2	1.331568
13	0x400c706e	2.1943622
14	0x3f8b12bb	1.0865091
15	0x4033620a	2.8028588
16	0x3f53a041	0.82666403
17	0x3f5bab5c	0.8580835
18	0xbeb6ac65	-0.35678402
19	0xbf9e34ce	-1.2359865
20	0xbf96317b	-1.173385
21	0xbf2c1d58	-0.67232275
22	0xbf988aa8	-1.1917315
23	0x3f6646fb	0.8995206
24	0xbe3d1442	-0.18464759
25	0xbed95946	-0.42450923
26	0x4024db30	2.5758781
27	0x3f7ddc84	0.99164605
28	0xbf8fb3db	-1.1226763
29	0xbed51a39	-0.4162157
30	0x3f6c8965	0.9239715
31	0x407f3702	3.9877324
32	0xbfba2d09	-1.4544994
33	0x3f9502eb	1.1641515
34	0xbfded99b	-1.7410158
35	0xbfb47cd4	-1.4100595
36	0xbf26bd15	-0.65132266
37	0x3f3d44ad	0.73932916
38	0x3fab12b6	1.3365085
39	0xbea33a13	-0.31880245
40	0x3f6b86ef	0.9200277
41	0x3f9f9714	1.246798
42	0x3f8def72	1.1088698
43	0x3f4adb16	0.7924055
44	0x3f7a7062	0.9782773
45	0xbf62dd2f	-0.8861875
46	0x3f64b00e	0.8933114
47	0xbe82142a	-0.2540601
48	0x3f706f5a	0.9391991
49	0x3fcf90c9	1.621606
50	0x3e842d06	0.258156
51	0x3e9a3388	0.3011744
52	0x3f019ebb	0.5063283
53	0x3ebb1125	0.36536518
54	0xbe6933e8	-0.22773707
55	0x3f2c06c0	0.671978
56	0xbf0a1f33	-0.53953856
57	0xbf987b52	-1.1912634
58	0x3fd0cfac	1.6313376
59	0x3f6360e2	0.88819706
60	0x3f100e5c	0.5627191
61	0x3fc329a9	1.5247089
62	0x3f98604c	1.1904387
63	0x3f5aa1c5	0.8540309
64	0xbfdb1ab1	-1.711752
65	0x40271331	2.6105464
66	0x3f718e73	0.94357985
67	0x3fa3b106	1.2788398
68	0x3e93af39	0.28844622
69	0x3e9e8f32	0.30968624
70	0xbe5d964f	-0.2163937
71	0x3f6a6aca	0.915692
72	0x3f31837d	0.6934126
73	0xbd01b3b4	-0.03166552
74	0x3f79f57a	0.9764019
75	0x4008d11a	2.1377625
76	0x3f197b3a	0.59953654
77	0x3f7fd274	0.999305
78	0xbf329a2c	-0.697665
79	0x3ff418f8	1.907012
80	0xbfcca9c4	-1.5989308
81	0x3fc9ea65	1.5774657
82	0x3f2410d5	0.64088184
83	0xbed025d0	-0.4065385
84	0xbfbcfc50	-1.47645
85	0x3f73a8d8	0.9517951
86	0x3f970ca0	1.1800728
87	0x3ea761e6	0.32691878
88	0x40063fc0	2.097641
89	0x400cbfd1	2.1992075
90	0xbffae3ce	-1.960077
91	0x3f6757a3	0.903681
92	0xbe14e8de	-0.14541957
93	0x3e99007d	0.29883185
94	0x3f586339	0.845264
95	0x3f8bdd82	1.0926974
96	0x3f0ff199	0.56228024
97	0x3f100461	0.5625668
98	0x3d8d36d0	0.0689522
99	0x3f826c80	1.0189362
100	0xbf688ff7	-0.9084467
101	0x3ff0966a	1.8795903
102	0x3f0bcded	0.5461109
103	0x3f907899	1.1286803
104	0xbd371432	-0.044696994
105	0x404431af	3.0655324
106	0xbf9018dd	-1.1257588
107	0xbfaa6287	-1.3311318
108	0xbf90158e	-1.1256578
109	0x3ff26f44	1.8940206
110	0x3f157247	0.583775
111	0x3ef0be5f	0.47020242
112	0x3f0cf5bc	0.5506246
113	0xbf06cb64	-0.526541
114	0x3f16643e	0.5874671
115	0x3f2cf0a4	0.6755469
116	0x3f4d2b2f	0.8014402
117	0x3f2fda86	0.68692815
118	0x3feaffdb	1.8359331
119	0x3b9c140f	0.0047631334
120	0xbda83563	-0.08213308
121	0x3ec5e7b1	0.3865333
122	0x3f3cab72	0.73699105
123	0x3f2a52ae	0.6653241
124	0xbd0c0234	-0.03418179
125	0x3feb5062	1.8383906
126	0xbf9063fd	-1.1280514
127	0xbe8e20db	-0.27759442
128	0x4001de93	2.0292099
129	0xbec88630	-0.39164877
130	0xbe93b532	-0.2884918
131	0x3e18d00e	0.14923117
132	0x3ff232a7	1.8921708
133	0x3ec5799d	0.38569346
134	0x3f083cf4	0.5321801
135	0x3f0d2705	0.55137664
136	0xbd047a4b	-0.03234319
137	0x3f6a63e3	0.91558665
138	0x3fb51a05	1.4148566
139	0x3ec1a038	0.3781755
140	0xbeab60f0	-0.33472395
141	0x3f11354e	0.5672196
142	0x3ccc619d	0.02494889
143	0x3f106f23	0.5641958
144	0xbf904fa4	-1.1274304
145	0xbf3825d3	-0.71932715
146	0x4010d978	2.2632732
147	0x3fd690e2	1.6762965
148	0x3f5f0281	0.87113196
149	0xbe0e7433	-0.13911514
150	0x3ed3bb0c	0.41353643
151	0xbf761a15	-0.9613355
152	0x3f22da02	0.63613904
153	0xbf903c26	-1.1268356
154	0x3f0bebce	0.54656684
155	0x3f266598	0.6499877
156	0x4011af71	2.276333
157	0x400f960a	2.2435327
158	0x3fbeb62e	1.4899347
159	0xbee4ee70	-0.44713163
160	0xbf987533	-1.1910766
161	0x3fafab14	1.3724084
162	0x40001f8f	2.0019262
163	0x3fd938ae	1.6970422
164	0x3fcfa019	1.6220733
165	0xbf902cfd	-1.1263729
166	0x3ff2e39f	1.8975714
167	0x3f48abe8	0.7838731
168	0x3f20f997	0.62880844
169	0x3f0c0b27	0.5470452
170	0x3e126501	0.14296342
171	0x3f4fa36e	0.8110875
172	0x40275c24	2.6149988
173	0x3fc47529	1.5348254
174	0x3f33cfc0	0.70238876
175	0xbefc5d0a	-0.49289733
176	0xbfaeaeac	-1.3647056
177	0x3e37d2c2	0.17951491
178	0xbf901a4c	-1.1258025
179	0xbea12f42	-0.31481367
180	0xbcc29a3e	-0.023755189
181	0x3f41a844	0.7564738
182	0xbee9f206	-0.45692462
183	0x3f025066	0.5090393
184	0x3f06a583	0.525963
185	0x3fa353bf	1.2759932
186	0x3f16b5c6	0.58871114
187	0xbf3acd42	-0.7296945
188	0xbf34b55d	-0.7058924
189	0xbed2c5e2	-0.41166598
190	0xbe50e8d2	-0.20401314
191	0xbecfcf71	-0.40587953
192	0xbecfab0f	-0.40560195
193	0xbfb9d29d	-1.4517399
194	0xbe538635	-0.20656665
195	0x3fddd6c8	1.7331171
196	0x3fd3ae37	1.6537541
197	0xbecfa831	-0.40558007
198	0x3d8cb6dc	0.06870815
199	0x3f9a9acc	1.207849
200	0xbeb92a10	-0.36164904
201	0xbed04b69	-0.40682533
202	0xbd8e253d	-0.069406964
203	0xbed110f1	-0.40833238
204	0x40345f5f	2.818321
205	0xbf99f5ec	-1.2028174
206	0xbe8f1681	-0.27946857
207	0xbecf84f9	-0.40531138
208	0x3f325fe6	0.6967758
209	0xbe95175a	-0.29119378
210	0xbe8a76ea	-0.2704385
211	0xbf4568dc	-0.7711313
212	0xbe91e818	-0.28497386
213	0x3fd53ced	1.6659218
214	0x401bc11b	2.4336612
215	0x3f04c697	0.51865524
216	0xbe8f660e	-0.2800755
217	0x3ea5d5f4	0.32389796
218	0xbe8a48fa	-0.27008802
219	0x3f139559	0.5764976
220	0x3fdbe49a	1.7179139
221	0xbe0f797d	-0.14011188
222	0x3febb2f5	1.8413988
223	0xbef8cb2a	-0.48592502
224	0x3ff8c151	1.9433995
225	0x3ff4ba4a	1.9119351
226	0x3f92a34c	1.1456084
227	0xbec9a7ac	-0.39385736
228	0x3cad9f14	0.021194018
229	0x3fef6e7c	1.8705592
230	0xbecefd11	-0.4042745
231	0x3e623dd6	0.22093901
232	0xbfb1622f	-1.3858088
233	0xbe5021db	-0.20325415
234	0x3f2d76fe	0.6775969
235	0x3fe300e2	1.7734644
236	0xbecec1da	-0.40382272
237	0x4018861d	2.3831856
238	0xbecfdc68	-0.40597844
239	0x400085bc	2.0081625
240	0x3fb6a725	1.4269758
241	0x3fd4f6d4	1.6637826
242	0x3f6c4198	0.9228759
243	0xbe1dc233	-0.15406112
244	0x3f03e84a	0.5152632
245	0xbe048309	-0.12940611
246	0x4008c43e	2.1369777
247	0xbe90f6f1	-0.283134
248	0x400086af	2.0082204
249	0xbecfbb46	-0.40572566
250	0x3dfc1ab5	0.123097815
251	0x3f3aa844	0.72913
252	0xc00aa17d	-2.1661065
253	0xbe453202	-0.19257358
254	0x3fe60638	1.7970648
255	0xbe12a523	-0.14320807

LayerOne.bias f4 [8]
0	0x4014b0c8	2.3232899
1	0x3f8f7423	1.1207317
2	0x3db583a0	0.08862996
3	0x3ec34da5	0.38145176
4	0x3f7e272d	0.9927853
5	0x3f4758a4	0.7786963
6	0x3f7794eb	0.96711606
7	0x3f3ae0f4	0.729995

LayerTwo.weight f4 [8, 8]
0	0x3e1a487d	0.15066715
1	0xbe6b6650	-0.22988248
2	0xbe1b4353	-0.15162401
3	0xbe3cbc16	-0.18431124
4	0xbe862814	-0.26202452
5	0xbe593664	-0.21212155
6	0xbd538a08	-0.05164531
7	0xbe8de2c9	-0.27712086
8	0x3f78fb5f	0.9725856
9	0x402a7c47	2.6638353
10	0xbfaa5a63	-1.3308834
11	0xbfb2e323	-1.3975567
12	0xbf795dff	-0.9740905
13	0x4010807f	2.2578428
14	0x402a91c9	2.665148
15	0xbf3d914e	-0.7404984
16	0x3f5920c2	0.8481561
17	0xc00bfcb6	-2.1872993
18	0x40098b95	2.1491444
19	0x3faf8073	1.3711075
20	0x3eb9eba5	0.36312595
21	0xbfc6c767	-1.5529603
22	0x3fed64d9	1.8546401
23	0xbde82a08	-0.11336142
24	0x40365609	2.8490012
25	0x3f55f212	0.83572495
26	0xbfd33805	-1.6501471
27	0xbd96c860	-0.07362437
28	0x402e7227	2.7257173
29	0xbf91c1b9	-1.1387244
30	0xbeb19abc	-0.34688365
31	0x3fcd3b47	1.6033715
32	0x3ef43d8d	0.4770321
33	0x3f62eced	0.8864277
34	0x3fbaff6d	1.46092
35	0x3f79a192	0.9751216
36	0xbf6416fb	-0.89097565
37	0xbfa3def2	-1.2802413
38	0x3fa6583b	1.2995676
39	0xbfa8375c	-1.3141894
40	0xbf2048da	-0.6261116
41	0x3fc2400e	1.5175798
42	0x4000701b	2.0068424
43	0x404d785f	3.2104719
44	0x3eb2b0b3	0.34900436
45	0x401be602	2.4359136
46	0xbedbe3a1	-0.42947105
47	0x4023cc0c	2.559329
48	0x3df03993	0.117297314
49	0x3efddc2a	0.49582034
50	0x3d68ad9f	0.056806203
51	0x3f75e281	0.9604874
52	0xbe9d40a4	-0.3071338
53	0xbe502f7c	-0.20330614
54	0xbe31148a	-0.17292991
55	0xbda7c153	-0.081911705
56	0xbe55f47b	-0.20894043
57	0xbda12584	-0.07868484
58	0xbd203550	-0.039113343
59	0x3de54d38	0.11196369
60	0xbe25c1d2	-0.16187218
61	0xbd89e718	-0.06733531
62	0xbe89c37a	-0.2690695
63	0xbdf25f0c	-0.11834535

LayerTwo.bias f4 [8]
0	0xbe2d4be7	-0.16923486
1	0x3f93e419	1.1553985
2	0x3db87614	0.090068966
3	0x3fb6a257	1.4268292
4	0x3e8c2838	0.27374434
5	0xbe85c611	-0.26127675
6	0xbeea50bd	-0.45764723
7	0xbe70720b	-0.23481004

LayerThree.weight f4 [24, 8]
0	0xbe4dae14	-0.20085937
1	0xbf2239b8	-0.6336932
2	0xbffbe610	-1.9679585
3	0xbed9bacd	-0.4252533
4	0xbfa7f845	-1.3122641
5	0x3eb227e4	0.3479606
6	0x3f8b1384	1.0865331
7	0xbe6d7452	-0.23188904
8	0x3ea4e2a6	0.3220417
9	0x3fb4498f	1.4084948
10	0xc03bd2b1	-2.9347346
11	0x3ef88f26	0.48546714
12	0xc0038686	-2.0550857
13	0xbfa962fa	-1.323333
14	0xc05243d5	-3.2853901
15	0xbe960cd9	-0.29306677
16	0xbddbac78	-0.10726255
17	0x3f0b75e7	0.5447678
18	0xc09d1e0a	-4.909917
19	0xbf1e0b41	-0.6173592
20	0x3eb53f49	0.35399845
21	0xbf4ba321	-0.7954579
22	0x3f9af2e0	1.210537
23	0xbe742172	-0.23840883
24	0xbe768cde	-0.24077174
25	0xbf1067be	-0.564083
26	0xc031f354	-2.7804766
27	0xc0326a9e	-2.7877574
28	0xbf99d6d4	-1.2018685
29	0x3f87d2ef	1.0611247
30	0x3f67a42b	0.90484875
31	0x3be29a40	0.0069153607
32	0xbde2cacb	-0.11073836
33	0x3f0a6cd4	0.5407231
34	0x3f29f6f4	0.66392446
35	0x3f572159	0.8403526
36	0xc0acecb2	-5.4038935
37	0xc0b07ee4	-5.5154896
38	0xbf25658f	-0.6460809
39	0xbdbc7460	-0.09201884
40	0xbe679564	-0.22615582
41	0xc00776fb	-2.116637
42	0xbe004b08	-0.12528622
43	0xbeddd241	-0.43324474
44	0x3f82f7cd	1.0231873
45	0xbf148b3a	-0.5802494
46	0x3faa7b56	1.3318889
47	0x3d2d9ff0	0.042388856
48	0xbdd219e6	-0.10258846
49	0x3f29648e	0.6616906
50	0xbf071d1b	-0.52778786
51	0x3ed96746	0.42461604
52	0x3dcd656d	0.10029111
53	0xc0a24940	-5.0714417
54	0xbe06742d	-0.13130255
55	0xbc5d3ca0	-0.013503224
56	0xbcdef7da	-0.027217794
57	0x3fc6d01c	1.553226
58	0xc0527110	-3.2881508
59	0xc0123ac4	-2.2848368
60	0xbf099eef	-0.5375814
61	0xbf5c4796	-0.8604673
62	0xc01e80b0	-2.4766045
63	0x3e39cbda	0.1814417
64	0x3e8d9639	0.27653673
65	0xbfddc0ac	-1.7324424
66	0x3e974d1e	0.29551023
67	0x3f4c80ed	0.79884225
68	0xbf9cba9a	-1.2244446
69	0xbf9ffc74	-1.2498918
70	0xbf9807dc	-1.1877398
71	0xbe655ff0	-0.22399879
72	0xbd8beda3	-0.06832435
73	0xc081c56a	-4.0553484
74	0xbf42be3b	-0.7607152
75	0xbf60a794	-0.87755704
76	0xc033d4ca	-2.8098626
77	0x3fa016c4	1.2506948
78	0x3d747132	0.059678264
79	0xbe09910b	-0.13434236
80	0x3d9cb4f4	0.076517016
81	0xbfaabdc4	-1.3339162
82	0x3fd0e36b	1.6319402
83	0xc07fb693	-3.9955184
84	0x3dcbf880	0.09959507
85	0xbecd3d22	-0.40085703
86	0xbfa613d9	-1.2974807
87	0x3d7297e0	0.05922687
88	0xbe8c04b8	-0.2734735
89	0x3f3c481d	0.73547536
90	0xc07d18d4	-3.9546404
91	0xbfa1ddcb	-1.2645811
92	0xc0803e52	-4.0076075
93	0x3f0936ad	0.53599054
94	0xc01883eb	-2.3830516
95	0xbe05e83a	-0.13076869
96	0xbe9a38b8	-0.30121398
97	0xc0840ad9	-4.126324
98	0x3fa5ac65	1.2943236
99	0xbf2ddc2f	-0.679141
100	0xbede4e2e	-0.4341902
101	0xbdce5da7	-0.100764565
102	0xbf6cd20a	-0.92507994
103	0x3dc81a50	0.09770644
104	0x3e3c7f2c	0.18407887
105	0x3f0faa74	0.56119466
106	0xbfaf2382	-1.3682711
107	0xc005b16c	-2.088954
108	0xbeb836b7	-0.35979244
109	0x3d16112c	0.03663747
110	0xbe578c87	-0.210497
111	0x3e9c45af	0.30521914
112	0xbe878428	-0.26468015
113	0x3d240a38	0.040048808
114	0x3ea843eb	0.32864317
115	0xc000c0c4	-2.0117655
116	0x3f8e2f5b	1.1108202
117	0xbf8d2361	-1.1026422
118	0x3b9dc38f	0.004814572
119	0xbe5546d7	-0.20827805
120	0xbdf57931	-0.11986006
121	0xc01e5984	-2.4742136
122	0xbc34af36	-0.011028102
123	0xc0730d6c	-3.7976942
124	0xbf31eb84	-0.69499993
125	0x3f78e88e	0.9722985
126	0x3e4b1a70	0.19834304
127	0x3d6534d0	0.05595857
128	0xbd43c87d	-0.047798622
129	0x3e7c91a2	0.2466493
130	0x3f92a7b3	1.1457428
131	0xbf5fcab5	-0.8741868
132	0x3f4eba8d	0.80753404
133	0xc0647844	-3.5698404
134	0xc0006be2	-2.0065846
135	0xbe22def8	-0.15905368
136	0xbd0132ce	-0.03154259
137	0xbb6b3069	-0.003588701
138	0xc0a36602	-5.106202
139	0x3f14eb33	0.58171386
140	0xc0c63be5	-6.1948113
141	0xbebeae41	-0.3724232
142	0x3fc1cbd5	1.514033
143	0x3e321f8a	0.17394844
144	0x3e61e55d	0.22060151
145	0x3dba99a7	0.09111338
146	0x3d1d497d	0.038400162
147	0xc095b5f8	-4.678463
148	0xbe876e69	-0.26451424
149	0x3d9d792f	0.076891296
150	0x3d644dbb	0.055738192
151	0x3cf20e50	0.02954784
152	0xbdf0664b	-0.11738261
153	0xc0ac5e5e	-5.3865194
154	0xbe721227	-0.23639737
155	0x3e982df0	0.29722548
156	0xbfbc1e0b	-1.4696668
157	0x3e020f35	0.12701114
158	0x3f9a14bf	1.2037581
159	0xbd216a20	-0.03940785
160	0x3c500014	0.012695331
161	0x3f91d47b	1.1392969
162	0xbf631eff	-0.8871917
163	0xbf5bfa61	-0.8592892
164	0x3f15227c	0.58255744
165	0xc01024fc	-2.2522573
166	0xbf4f94eb	-0.81086606
167	0x3ce58510	0.02801755
168	0x3dfef0a0	0.12448239
169	0xbfd959a2	-1.6980479
170	0xbfdc6024	-1.721684
171	0x3e9adf42	0.30248457
172	0xc0a217ff	-5.065429
173	0x3eea7ac7	0.45796797
174	0xbfc597bc	-1.5436931
175	0xbe89e694	-0.2693373
176	0x3d03a28c	0.03213744
177	0xbf33ddfe	-0.7026061
178	0x3f614529	0.87996155
179	0xbf9dc0e7	-1.2324494
180	0xbfb08f1a	-1.3793671
181	0x3e86a70c	0.26299322
182	0xc04873f1	-3.1320765
183	0x3e647002	0.22308353
184	0x3de5f9a3	0.11229255
185	0xbf08aebe	-0.53391635
186	0x3eafa865	0.34308162
187	0x3ecd3b84	0.4008447
188	0xbf0eb201	-0.5574036
189	0xbf8c27ad	-1.0949608
190	0x3eb745dc	0.35795486
191	0xbe06e60c	-0.13173693

LayerThree.bias f4 [24]
0	0xbdbceff5	-0.09225456
1	0x3fd1aa26	1.638005
2	0xbef9c353	-0.48781833
3	0xbeaa8378	-0.33303428
4	0x3f0952f3	0.53642195
5	0xbe59bca9	-0.21263374
6	0xbf0fc109	-0.56153923
7	0x3eb0b77d	0.3451499
8	0x3ed35a09	0.4127963
9	0x3f1d8a54	0.61539197
10	0x3db43aa4	0.08800247
11	0xbe761c1d	-0.24034162
12	0xbdbecc8a	-0.093163565
13	0xbf00ffd1	-0.50390345
14	0x3f0db68f	0.5535669
15	0xbe035d5f	-0.12828587
16	0xbdcf00c5	-0.10107569
17	0xbf0523ec	-0.5200794
18	0xbec8ab89	-0.3919337
19	0xbf1ca3c5	-0.6118739
20	0xbf04c9db	-0.51870507
21	0xbf5b5949	-0.85683113
22	0x3f068c4d	0.5255783
23	0xbeb6dc43	-0.3571492
