TrainingData.pth (torch, 7703 bytes, 6 tensors)

LayerOne.weight f4 [8, 95]
0	0x3f853ae2	1.0408595
1	0x3f012f0e	0.50462425
2	0x3e9e9cef	0.30979106
3	0x3ed99ef1	0.42504075
4	0x3f8bca98	1.0921202
5	0xbf4f0cdc	-0.80878997
6	0xbf646328	-0.892138
7	0x3ef56c35	0.47934118
8	0xbf567854	-0.83777356
9	0xbec87c7d	-0.39157477
10	0xbf9e4ea0	-1.2367744
11	0xbf7f60f6	-0.99757326
12	0xbf55b0f7	-0.8347315
13	0xbf684f22	-0.9074575
14	0x3d6af080	0.057358265
15	0xbf617086	-0.8806232
16	0x3ee41237	0.44545147
17	0x3ebdc04e	0.3706078
18	0x3d71f791	0.05907399
19	0x3f5b4878	0.85657454
20	0x3f785d3e	0.97017276
21	0x3f4e3b15	0.805589
22	0x3f69ad26	0.9127983
23	0xbf4b1ddd	-0.7934244
24	0x3faf1b37	1.368018
25	0x3c3049b6	0.010759762
26	0x3c9418d9	0.018078255
27	0x3f09d149	0.5383497
28	0x3f706204	0.9389956
29	0xbda611cc	-0.08108863
30	0xbf51b2ec	-0.8191364
31	0xbdf376a5	-0.11887864
32	0xbf7e1240	-0.992466
33	0x3fba064d	1.4533173
34	0xbf7d1d7b	-0.9887311
35	0xbf8fec55	-1.1243998
36	0xbf6c2ffb	-0.9226071
37	0x3f08c9a6	0.5343269
38	0x3e22525a	0.15851727
39	0xbf5697d1	-0.83825403
40	0x3eece260	0.4626646
41	0x3eaad851	0.3336816
42	0x3ef6803b	0.48144707
43	0xbd188235	-0.03723355
44	0x3e62bcac	0.22142285
45	0x3ee96d15	0.45591035
46	0x3e6cbe0a	0.23119369
47	0x3f86199f	1.0476569
48	0x3f0c206d	0.5473698
49	0xbf094c5d	-0.53632146
50	0xbf35dd05	-0.71040374
51	0x3f99d9ab	1.2019552
52	0x3fd49771	1.6608716
53	0x3e8c332c	0.2738279
54	0x3ec10f52	0.37707
55	0x3eabcdbf	0.3355541
56	0x400b7e08	2.1795673
57	0x3f79626f	0.9741582
58	0xbf132493	-0.5747768
59	0x3f05af8c	0.5222099
60	0x3ee5ad15	0.44858614
61	0x3f1fca07	0.62417644
62	0x3e570c3a	0.21000758
63	0x3f313aac	0.6923015
64	0xbf88cf9e	-1.068836
65	0x3e98fba7	0.29879496
66	0xbd83264f	-0.06403791
67	0x3fb89e03	1.4423221
68	0xbf1a84de	-0.6035899
69	0xbf7c5829	-0.9857202
70	0x3fccc963	1.5998958
71	0xbf5c87ab	-0.8614451
72	0x3ef95d9c	0.4870423
73	0xbf43321c	-0.76248336
74	0x3e8ad716	0.27117223
75	0xbfb6f713	-1.4294151
76	0xbc91ea75	-0.017811993
77	0x3ece503d	0.40295592
78	0xbeaf47cf	-0.34234473
79	0xbf67e205	-0.90579253
80	0xbf8205fe	-1.0158079
81	0xbf5e9459	-0.8694511
82	0xbfecdafc	-1.8504329
83	0x3fcb86f4	1.590056
84	0xbf840297	-1.031329
85	0xbcf12688	-0.029437318
86	0x3df246c0	0.11829901
87	0xbe80d03a	-0.25158864
88	0x3e3b17ae	0.18270752
89	0x3f217f0b	0.6308448
90	0x3f9e131a	1.2349579
91	0x3eb8c384	0.36086667
92	0xbf1d3df1	-0.6142264
93	0xbf0ba5b6	-0.5454973
94	0x3e46d34c	0.19416541
95	0x3f5aa98e	0.8541497
96	0xbda21636	-0.07914393
97	0xbe71a06b	-0.23596351
98	0x3fdf8d96	1.7465084
99	0x3f5b466c	0.8565433
100	0x3ed7c468	0.42142034
101	0x3fbb6a62	1.464184
102	0xbd5d037d	-0.053958405
103	0x3e6babe6	0.23014793
104	0x3f719bdb	0.9437844
105	0xbe3187ab	-0.1733691
106	0x3f9b6d3a	1.2142708
107	0x3f811347	1.0084008
108	0x3f8b711e	1.0893896
109	0xbf8134ec	-1.0094275
110	0x3fc33e50	1.5253391
111	0x3d84e936	0.06489794
112	0xbe2e346c	-0.17012185
113	0x3e1ce241	0.15320684
114	0xbed4909e	-0.41516584
115	0xbed3ab48	-0.41341615
116	0xbedc9974	-0.43085825
117	0xbed488c3	-0.4151059
118	0x3fbb774b	1.464578
119	0xbf756b01	-0.958664
120	0xbf9429f5	-1.1575304
121	0x3fb11657	1.3834943
122	0xbd496c9e	-0.04917585
123	0xbed484be	-0.41507524
124	0xbf8cb58c	-1.0992904
125	0x3fb6242a	1.4229786
126	0x3fe6e57f	1.8038787
127	0x3f9b9d11	1.2157308
128	0x3f4d9986	0.80312383
129	0x3f86f0c7	1.054223
130	0x3f87dc6d	1.0614144
131	0xbf1e402c	-0.6181667
132	0x3f819956	1.012492
133	0x3eb5195d	0.35370913
134	0x3f98720f	1.1909808
135	0xbdf01ca1	-0.117242105
136	0x3f925786	1.143296
137	0x3e44b646	0.19210157
138	0x3f3ce7c5	0.7379115
139	0x3f7c2ff4	0.9851067
140	0xbf6852a1	-0.9075108
141	0xbe712dea	-0.23552671
142	0xbfaa6e64	-1.3314939
143	0xbd6783d2	-0.056522198
144	0x3fcc9c3a	1.5985177
145	0x3faf808e	1.3711107
146	0xbf929adb	-1.1453508
147	0xbf74965d	-0.95541936
148	0x3f1ccc02	0.6124879
149	0x3cc3b6e6	0.023890924
150	0x3dde7aaf	0.10863244
151	0xbf65b1f4	-0.8972466
152	0xbed452d6	-0.4146945
153	0x3fc17295	1.5113093
154	0xbd48bf8f	-0.04901081
155	0x3f2b4d52	0.66914856
156	0xbee8f05d	-0.45495883
157	0xbf5fe92c	-0.8746517
158	0xbef7e1cb	-0.48414454
159	0x3f8c6ade	1.0970113
160	0x3fd6fcbf	1.6795882
161	0x3f4464c3	0.7671625
162	0x3f41fd54	0.75777173
163	0x3f80ca5c	1.0061755
164	0x3dc82998	0.097735584
165	0xbf8474d4	-1.0348153
166	0x3fb7eb0a	1.4368603
167	0x3d90a538	0.07062763
168	0x3f885913	1.0652183
169	0x3f7c58c8	0.9857297
170	0x400bf842	2.1870275
171	0x3f2977fe	0.6619872
172	0x4005b86e	2.0893817
173	0x3e356202	0.17713168
174	0x3f90ed37	1.1322392
175	0x3f840ab4	1.0315766
176	0x3f91e7d0	1.1398869
177	0x3fd96417	1.698367
178	0xbf86031f	-1.0469702
179	0x3f895c5d	1.0731312
180	0x3f87237c	1.0557704
181	0x3f8986e1	1.0744287
182	0x3f36f111	0.7146159
183	0x3fb46190	1.4092274
184	0x3fc0dfb0	1.5068264
185	0xbf84dbdf	-1.0379599
186	0xbe2fb159	-0.17157497
187	0x3f1dfcd6	0.6171392
188	0x3fb3b869	1.4040653
189	0x3f64a43a	0.8931309
190	0x3e95b627	0.29240534
191	0xbd504d25	-0.05085482
192	0xbcae102b	-0.021247944
193	0xbed4ce65	-0.41563717
194	0x3e9ff1e5	0.31239238
195	0x3f48d520	0.784502
196	0x3fa6f42f	1.3043269
197	0xbd25c657	-0.040472355
198	0x3f6f1d52	0.93404114
199	0x3e00872a	0.12551561
200	0x3fef1871	1.8679334
201	0x3f358d05	0.70918304
202	0x3e9f8128	0.31153226
203	0x3f1beb72	0.60906136
204	0xbf4f9885	-0.810921
205	0x3f3f0313	0.74614066
206	0x3e0e6582	0.1390591
207	0xbbcc417c	-0.0062333923
208	0x3f189dbe	0.59615695
209	0xbe3db68b	-0.18526666
210	0xbe51c2d3	-0.20484476
211	0xbd90249d	-0.070382334
212	0xbe296e3e	-0.1654596
213	0x3fad86b7	1.3556737
214	0x3fb0041c	1.3751254
215	0x3facc914	1.3498864
216	0x3f30c259	0.6904655
217	0xbe199240	-0.14997196
218	0xbe4a0fe9	-0.19732632
219	0x3fb8705a	1.4409287
220	0x3fad8060	1.3554802
221	0xbf21c3f6	-0.6318964
222	0xbf65154e	-0.89485633
223	0x3f8f9f4f	1.1220492
224	0xbf6884ff	-0.90827936
225	0xbf6877a1	-0.9080754
226	0x40008468	2.0080814
227	0x3f943ca2	1.1581004
228	0x3ebdcbcb	0.37069544
229	0x3f2873fa	0.65801966
230	0xbc67b9ea	-0.014143446
231	0x3de1d06c	0.110260814
232	0xbf42ff0c	-0.7617042
233	0x3edd14d5	0.43179956
234	0x3e1f6487	0.15565692
235	0x3f56113e	0.8362006
236	0xbd233819	-0.03984842
237	0x3f96d4ff	1.1783751
238	0xbd33b26c	-0.04387133
239	0xbf69f6de	-0.91392314
240	0x3f33f17a	0.7029034
241	0xbf692301	-0.91069037
242	0xbf0cbe4e	-0.5497788
243	0x3e881a39	0.26582506
244	0xbdd88e72	-0.10574044
245	0x3df4a72b	0.11945947
246	0xbf12f91c	-0.5741136
247	0xbe3f9c42	-0.18711951
248	0xbf6a176c	-0.9144199
249	0xbc5f6d03	-0.01363683
250	0x3ed3680e	0.41290325
251	0x3fa99bb7	1.3250645
252	0x3f727d49	0.9472242
253	0x3ecc0a30	0.39851522
254	0xbf65dad9	-0.8978706
255	0xbfa77fac	-1.3085837

LayerOne.bias f4 [8]
0	0x3f9eb45b	1.239879
1	0x3fae1e06	1.3602912
2	0x3f67ebb0	0.90594006
3	0x3f9666ff	1.1750182
4	0x3f95d43c	1.1705394
5	0x3f28fc09	0.66009575
6	0x3fdfcb0b	1.7483839
7	0x3f2aca14	0.66714597

LayerTwo.weight f4 [8, 8]
0	0xbd775638	-0.06038496
1	0xbd430730	-0.047614276
2	0xbe5a3619	-0.21309699
3	0x3da49248	0.080357134
4	0xbb45e480	-0.003019601
5	0xbaac0500	-0.0013124049
6	0xbdb1539c	-0.08658525
7	0xbd6b0ba8	-0.057384163
8	0x3e1d2a69	0.1534821
9	0xbe8e4e21	-0.27793983
10	0xbdff7c8c	-0.12474927
11	0x3e16b65c	0.14718002
12	0xbeb4bea3	-0.35301694
13	0xbe22a9ac	-0.15885037
14	0xbe720dc8	-0.2363807
15	0xbee2e3cd	-0.44314423
16	0xbf1b9954	-0.60780835
17	0x401ca916	2.4478202
18	0xbfc091ec	-1.5044532
19	0x3fb00313	1.3750938
20	0x40428d58	3.039877
21	0xbfd0a0f6	-1.6299121
22	0x3fa20bc0	1.2659836
23	0x3f9d90ff	1.2309874
24	0xbfaa626d	-1.3311287
25	0x3febead6	1.8431041
26	0x3fab993b	1.3406137
27	0xbfd194e3	-1.6373562
28	0xbf820a8f	-1.0159472
29	0x400e403e	2.222671
30	0x3fab19dd	1.3367268
31	0x4006540c	2.0988798
32	0x3fa9b922	1.3259623
33	0xbdebab7d	-0.11507318
34	0x4052ccfa	3.2937608
35	0x40086518	2.1311703
36	0x3f72db3d	0.9486578
37	0xbf063119	-0.5241867
38	0x3f73a28c	0.951699
39	0xc000625c	-2.0060034
40	0x3e1da721	0.15395786
41	0xbf198ced	-0.5998066
42	0x4034035c	2.812705
43	0xbeb50a64	-0.3535949
44	0x3e3cdc2f	0.18443368
45	0x3f33a020	0.70166206
46	0x3f89c0b0	1.0761929
47	0xbf9ed72d	-1.2409416
48	0x4054a0d6	3.3223166
49	0xbf32c02c	-0.6982448
50	0xbfbb7e89	-1.464799
51	0x3fb50074	1.4140763
52	0xbf99422a	-1.1973317
53	0x400659f8	2.0992413
54	0x3ffb30ba	1.9624245
55	0xbda16ca1	-0.078820474
56	0xbea107ca	-0.31451255
57	0xbe5a00c1	-0.2128935
58	0xbe873dd6	-0.26414365
59	0xbd5d1da8	-0.05398336
60	0x3bd16580	0.0063902736
61	0xbe9d1f22	-0.30687815
62	0x3e466672	0.19375017
63	0x3e11233a	0.14173594

LayerTwo.bias f4 [8]
0	0xbdcdd838	-0.10051006
1	0xbd8e8e68	-0.069607556
2	0x3fa3ceb0	1.2797451
3	0x3e374d51	0.17900588
4	0x3e6c5d83	0.23082547
5	0x3d83b7de	0.06431554
6	0x3f7c2538	0.9849429
7	0xbd80d3e0	-0.06290412

LayerThree.weight f4 [24, 8]
0	0x3dbcdbac	0.092215866
1	0x3abefd91	0.0014571418
2	0x3db59604	0.08866504
3	0xbe9a626c	-0.30153215
4	0x3eb9a6ec	0.36260164
5	0xbf0e5ccf	-0.55610365
6	0xbfb5553b	-1.4166635
7	0xbdbda4d4	-0.09259954
8	0x3e4dc75e	0.20095584
9	0x3c118ae0	0.008883208
10	0x3e97370c	0.29534185
11	0xc0093f6c	-2.144496
12	0x3ee744c5	0.45169654
13	0xbe526591	-0.20546557
14	0x3d931290	0.07181275
15	0xbe69bd05	-0.22826011
16	0x3d88f7a4	0.06687859
17	0x3d0d07cc	0.034431264
18	0xc01bd7e0	-2.435051
19	0x3ebf3a8f	0.37349364
20	0xbefb4c5e	-0.490817
21	0x3ec3520b	0.3814853
22	0xbe7d6764	-0.24746472
23	0x3e1fc91a	0.15604058
24	0x3e85ad5b	0.26108822
25	0xbd9bf044	-0.076141864
26	0xbf80d0a2	-1.006367
27	0xbfccfe8b	-1.601518
28	0x3f403af0	0.7508993
29	0x3eecab93	0.4622465
30	0xbf063e68	-0.52438974
31	0x3e8309ef	0.25593516
32	0x3e0b3666	0.1359497
33	0xbe0ef102	-0.13959125
34	0x3f30fada	0.6913277
35	0xbf887fff	-1.0664061
36	0x3f809835	1.004645
37	0xbfff8562	-1.996258
38	0xc04d13f2	-3.2043424
39	0x3d99f8a0	0.075181246
40	0xbdc53f44	-0.096312076
41	0xbe936121	-0.2878504
42	0xbf31a07c	-0.69385505
43	0x3d8d357e	0.068949685
44	0xc04b473b	-3.1762226
45	0xbea11458	-0.31460834
46	0x3f0e2f5f	0.5554103
47	0xbea6dbe4	-0.32589638
48	0x3db344f8	0.08753389
49	0xbea57d6e	-0.32322258
50	0xbeb819f3	-0.35957298
51	0x3e81676f	0.25274226
52	0xbf98bd56	-1.1932781
53	0xbe1ba57a	-0.15199843
54	0xbeca401b	-0.39502034
55	0x3ea10a33	0.31453094
56	0x3db60b60	0.08888888
57	0xbe514de8	-0.20439875
58	0xc0433eb8	-3.050703
59	0xc056b05d	-3.3545144
60	0x3ebe5de3	0.37181005
61	0xbf9343ce	-1.1505067
62	0x3f9c0502	1.2189028
63	0x3e9f86e1	0.31157592
64	0x3ddfd488	0.10929209
65	0xbdd779a3	-0.10521247
66	0x3f38d3a4	0.7219794
67	0xbfb97c54	-1.4491067
68	0x3ebcd297	0.36879417
69	0xc080ab71	-4.020928
70	0xbe31f35b	-0.17377989
71	0x3e96d8f5	0.294624
72	0x3d90b6f4	0.070661455
73	0xbe3c4c07	-0.18388377
74	0x3fbaf3cb	1.460565
75	0xbf5d49e4	-0.86440873
76	0xbf860f8e	-1.0473497
77	0xc059437b	-3.3947437
78	0xc024d6de	-2.5756145
79	0xbd338448	-0.043827325
80	0x3e78cade	0.24296138
81	0x3e35f0c1	0.17767622
82	0xbe6836a6	-0.22677097
83	0xbf196bcc	-0.5993011
84	0x3ef81190	0.484509
85	0x3ecf3834	0.40472567
86	0xc0741087	-3.8135087
87	0x3e9ba51d	0.3039941
88	0x3d8bd234	0.068272024
89	0xbebe14ec	-0.37125337
90	0xc032e0d3	-2.7949722
91	0x3eea06e4	0.45708382
92	0x3e607a8e	0.21921751
93	0x3ed7dae6	0.42159194
94	0xc03f9fb9	-2.9941237
95	0x3ac18800	0.0014765263
96	0x3d1b2808	0.037879974
97	0xbeb45040	-0.35217476
98	0x3f1b41ba	0.60647166
99	0x3e2bb35f	0.16767643
100	0xbeec156a	-0.46110088
101	0xbf81f75b	-1.0153612
102	0xc0820eda	-4.064313
103	0xbe7a0b07	-0.24418269
104	0x3e1c114e	0.15240976
105	0xbda8725b	-0.082249366
106	0xbfc76d3e	-1.5580213
107	0xbecabeaf	-0.39598605
108	0xbf7b594f	-0.9818315
109	0xc05301c2	-3.2969823
110	0x3f9355da	1.1510575
111	0xbe55b90a	-0.20871368
112	0x3dee1a2c	0.11626086
113	0xbd8125e3	-0.063060544
114	0xc009b17d	-2.151458
115	0xbf7ae2de	-0.9800242
116	0x3dab9610	0.083782315
117	0x3eb6e9da	0.3572529
118	0x3f04a19c	0.51809096
119	0x3e35a53a	0.1773881
120	0xbe8f9f59	-0.2805126
121	0x3da35e69	0.07976992
122	0xbfa0b336	-1.2554691
123	0xc071349f	-3.7688367
124	0x3f356116	0.70851266
125	0x3ec501b2	0.38477856
126	0x3ef3a398	0.4758575
127	0x3d6812d0	0.056658566
128	0xbe9735e1	-0.29533294
129	0x3e9f3b1c	0.31099784
130	0x3f823042	1.0170977
131	0xbd0cbe30	-0.034361064
132	0xc080e016	-4.0273542
133	0xc06ebcb5	-3.7302678
134	0xbf3090ad	-0.6897076
135	0x3e95f5c9	0.29289082
136	0x3c9db320	0.019250453
137	0x3dd7db38	0.105398595
138	0xbf8a1ab4	-1.0789399
139	0xbe7ae8fb	-0.24502937
140	0xbce34a91	-0.027745517
141	0xbf46d482	-0.7766801
142	0x3eb228ba	0.34796697
143	0x3e9bbd9f	0.30418107
144	0x3cede680	0.029040575
145	0xbcbae7ba	-0.022815574
146	0xbf091abd	-0.53556424
147	0x3f3c0dcb	0.73458546
148	0xc0758dd3	-3.8367813
149	0xbe8ca38b	-0.27468523
150	0xbf47429f	-0.7783603
151	0x3dd65990	0.104663014
152	0xbe54eca4	-0.20793396
153	0x3e8d773f	0.2763004
154	0x3ecc4b9b	0.39901432
155	0x3f6adeb2	0.91746056
156	0xc024d85c	-2.5757055
157	0xc045a297	-3.0880487
158	0xc0355cfb	-2.8338
159	0x3e580bda	0.21098271
160	0xbeab6308	-0.33473992
161	0x3d327c5c	0.04357563
162	0x3d509168	0.05091992
163	0x3e816efe	0.25279993
164	0xc0016baa	-2.0221963
165	0xc06f24a0	-3.7366104
166	0x3e90f0a0	0.28308582
167	0x3e99cc6b	0.3003877
168	0x3e13e2a2	0.14441922
169	0x3e31e899	0.17373885
170	0xbf1ede66	-0.62058103
171	0x3f45b0e5	0.77223045
172	0xbf0eb010	-0.557374
173	0xbd808dc8	-0.062770426
174	0xc031cc81	-2.778107
175	0xbe95ae7a	-0.29234678
176	0x3e9437ef	0.28948924
177	0xbe64428c	-0.2229101
178	0xbf02751f	-0.5095996
179	0xbff7e660	-1.936718
180	0xbeb53548	-0.35392213
181	0xbf32249d	-0.6958712
182	0x3f878d9a	1.0590088
183	0x3d373100	0.044724464
184	0xbeb13d09	-0.3461688
185	0xbe8f523f	-0.27992436
186	0x3ecbcc00	0.39804077
187	0xbf143002	-0.57885754
188	0xbea44a08	-0.3208773
189	0xc03b0af0	-2.9225426
190	0x3e676178	0.22595775
191	0xbdf3196a	-0.11870082

LayerThree.bias f4 [24]
0	0x3e45e179	0.19324292
1	0x3f25664d	0.64609224
2	0x3dab2dab	0.0835832
3	0x3e919425	0.28433338
4	0xbe1f28e7	-0.15542947
5	0xbe0c6aee	-0.13712665
6	0xbf1196d9	-0.568708
7	0x3eed4042	0.46338087
8	0xbeee99a2	-0.46601588
9	0x3f3b24bd	0.73102933
10	0x3e8d2b34	0.27572024
11	0xbd34efc1	-0.04417396
12	0x3dcbfe97	0.099606685
13	0x3f012d49	0.50459725
14	0xbec2a4fe	-0.38016504
15	0xbea25571	-0.31705812
16	0x3f08d67f	0.53452295
17	0xbe959c36	-0.29220742
18	0x3d272fd2	0.04081709
19	0x3dad33c6	0.084571406
20	0xbf1ca2cd	-0.61185914
21	0xbf1cc286	-0.6123432
22	0xbd1e51c9	-0.038652215
23	0xbda26ea8	-0.07931262
